test_code/dqn_weights.pth (torch, 191472 bytes, 6 tensors)

fc1.weight f4 [128, 242]
000000 60 ac 46 3d 8c 79 23 3d 09 bf 40 3d 93 d2 2f 3c
       0.048504233 0.039910838 0.047057185 0.010731357
000010 bd 8e dd 3c 2f 6b 10 be b2 49 06 be 8c 14 3d be
       0.027045602 -0.14103387 -0.1311405 -0.1846487
000020 5b ae 39 3e 5c 4c 22 3e f3 47 aa bd 9c f5 49 be
       0.18132918 0.15849441 -0.083145045 -0.19722599
000030 ea b3 42 bd 9e 47 a4 bd 6d 67 f6 3d 45 27 bf bd
       -0.04753486 -0.080214724 0.12031446 -0.09333662
000040 38 e2 48 3d f0 75 53 3e 65 17 dd bd 55 b1 b8 bd
       0.049043864 0.20650458 -0.10795478 -0.090181984
000050 d6 31 ae bd d3 68 4e 3c 02 25 34 be f8 9c 96 bd
       -0.08505599 0.012598234 -0.17592242 -0.07354158
000060 1f 5d 51 3d 70 a8 14 be bc a8 7e bd 3c 5b d7 bb
       0.051114198 -0.14517379 -0.062172636 -0.0065721553
000070 b5 20 1b be 15 8c d6 3d d7 15 a4 3d 99 50 2d be
       -0.15149195 0.10475937 0.08011978 -0.16925277
000080 d2 2b b8 bd 49 f6 ec bd 2e e5 92 be 8e a0 ce bd
       -0.08992733 -0.11570413 -0.28690475 -0.10089217
000090 60 49 c6 bd 0e b0 16 be 68 34 85 be b5 08 40 bd
       -0.09681964 -0.14715597 -0.26016545 -0.046883304
0000a0 8f 7b 50 3d 25 49 25 be a9 88 e7 bd e3 17 44 be
       0.050899085 -0.16141184 -0.11305363 -0.19149737
0000b0 83 4d 92 3b 36 eb a1 bc c4 10 5f be 62 ed 13 be
       0.0044648065 -0.019765478 -0.2178374 -0.14446023
0000c0 3e d1 9a 3d d9 c4 cd 3d d5 e7 2d 3d 3f 1f 0b be
       0.07559441 0.10047311 0.04245742 -0.13586138
0000d0 e7 07 8e bd 40 b5 9b bd c6 66 ab bd 02 79 da bd
       -0.06935101 -0.0760293 -0.08369212 -0.10667612
0000e0 67 57 a7 3c 53 c7 04 be 8b 46 87 bd f0 64 a6 bd
       0.020427419 -0.12966661 -0.06605252 -0.08124721
0000f0 7c 59 d8 bd 1c d1 7b 3c 6d b9 a7 bc 92 da fb bc
       -0.10563943 0.01536968 -0.02047416 -0.03074387
000100 e7 4e 24 3d d5 91 38 be 74 61 c0 3c a7 08 e3 3d
       0.04011431 -0.1802438 0.02348397 0.11085635
000110 68 55 36 3d 8c 83 23 be fe d7 83 3b 37 54 ad 3d
       0.044515043 -0.1596815 0.004023551 0.08463328
000120 41 81 52 3b 61 c8 38 bd 18 de ea bd f3 c0 89 bd
       0.0032120498 -0.04511297 -0.11468142 -0.06726255
000130 47 3c 7f bc f4 c5 1f be 1a 7d 52 bd 7d 3d 2e bd
       -0.015578336 -0.15602857 -0.051388837 -0.04253911
000140 50 95 d1 bd 6a 2f ef bd dc 7c 7b bd f6 ed 2b bc
       -0.10233557 -0.116789654 -0.061398372 -0.010493746
000150 4a f3 36 3e b7 e4 d5 be 19 4d 08 be e9 2c d2 bd
       0.17866245 -0.41776058 -0.1331066 -0.10262472
000160 18 d6 dc bd 68 c8 94 be cc da b6 bb 21 f5 c0 3d
       -0.10783023 -0.29059148 -0.005580282 0.09421755
000170 f2 30 4c bd 34 2f 50 bd ff f1 de 3c 47 76 1c be
       -0.049851365 -0.050826266 0.027215002 -0.15279494
000180 43 be 31 be 73 68 16 bd a8 64 0a 3d a0 a8 84 bd
       -0.17357735 -0.036720704 0.0337874 -0.06477475
000190 7d e2 d5 3d 0b 54 a2 bc 2a a5 65 bd 97 d1 b8 bd
       0.1044359 -0.019815465 -0.056065716 -0.09024351
0001a0 87 d3 c1 bd f2 ec 64 be 26 65 7b bd 08 b0 02 3e
       -0.09464174 -0.22356012 -0.06137576 0.12762463
0001b0 68 dd 24 be 7c 10 1f be 03 c0 f1 bb 51 49 94 bd
       -0.16100085 -0.15533632 -0.007377626 -0.072405465
0001c0 0e ea 4d bd 12 56 40 be bc e4 11 be fe e3 1e bd
       -0.05027204 -0.18782833 -0.14247411 -0.03879165
0001d0 50 76 b5 bc 6b 86 9d bd c8 11 b8 bd 09 66 c2 3d
       -0.022151142 -0.07691654 -0.089877665 0.09492118
0001e0 8c df e3 bd 6e 05 71 bd b4 7d c8 bd 8a 1a f1 3d
       -0.111266226 -0.05884307 -0.09789601 0.1177264
0001f0 e0 01 0e be 2c 28 4f be 7a 1b 95 be cc 5a 89 3d
       -0.13867903 -0.20230168 -0.29122525 0.06706771
000200 2c d2 5d 3e 72 36 52 bd 20 53 24 bc 40 f0 67 3d
       0.21662205 -0.051321454 -0.010029584 0.056625605
000210 f4 c0 57 3e c0 e3 09 3d 52 05 b7 3d 9f 2d 8c be
       0.210697 0.033664465 0.08936562 -0.27378556
000220 3c c6 cf bd 7c d6 05 be 62 40 a3 3d 8b 55 5a 3b
       -0.10145232 -0.130701 0.079712644 0.0033315148
000230 f3 52 a4 be f0 8e b2 3c 11 61 32 bd a6 ba 43 3d
       -0.32094535 0.021796674 -0.0435496 0.047785424
000240 06 77 f9 3c ca 9e 24 3d 38 8f 3b be 18 ca db be
       0.030452263 0.040190496 -0.18316352 -0.42927623
000250 9f af 66 be 91 69 12 bf 13 b5 65 3d be 9e f8 bc
       -0.22527932 -0.5719233 0.05608089 -0.030349132
000260 c8 22 87 3c 5c a7 e5 3c 70 cc 40 bb 05 46 de bd
       0.016496077 0.028033905 -0.002941873 -0.10853199
000270 0b 5c ce bd 80 d6 8b be 31 20 19 bf 15 8d f4 be
       -0.100761496 -0.27312088 -0.59814745 -0.47763887
000280 ff 9f 05 bf 76 a7 25 be e0 05 37 3c 9c 04 67 3d
       -0.5219726 -0.16177163 0.011170834 0.05640088
000290 fe 48 80 3d 03 fd 95 3c 2a 69 1c bd ac 3c 51 bd
       0.06263922 0.018309122 -0.03818623 -0.05108325
0002a0 7f c5 44 be 0e c0 34 be 53 54 11 bf 39 fd 37 bf
       -0.19215964 -0.17651388 -0.56769294 -0.7187076
0002b0 a8 a6 e3 be 5e e7 a8 be fa ef 1e bd 9e a7 6a 3e
       -0.44463086 -0.3298902 -0.03880308 0.22915503
0002c0 df 33 d3 3e 20 58 13 be 3c a2 9d be 4d 2a bc be
       0.41250512 -0.14389086 -0.30787838 -0.36751023
0002d0 03 b8 0b bf 3c 83 3a bf 47 fc 0a bf 25 d5 d0 be
       -0.54577655 -0.728565 -0.54291195 -0.40787616
0002e0 44 ca 94 3e 9a 50 d4 bb 59 20 5b 3d 23 11 1f bd
       0.29060566 -0.006479335 0.053497646 -0.038834702
0002f0 ae 50 49 bd 58 51 77 3c a8 d1 9b bc bc 77 31 3d
       -0.049149208 0.015095077 -0.01902087 0.04332708
000300 20 1c 6f 3c b7 1f b6 3a 71 06 b1 3b 01 ae 82 3d
       0.014594108 0.001389495 0.005402379 0.06380845
000310 3e 61 1f 3d 17 83 bd 3d 98 fe 49 3d ac 3c a5 3c
       0.038911097 0.09253519 0.049315065 0.020170532
000320 74 7b 02 3d f2 36 b6 bc 66 c1 44 bd e6 3e 6c bd
       0.031856015 -0.022242997 -0.048036 -0.057677172
000330 30 f6 0a bd ac b0 77 bd fe 4a 69 3d e1 cb 17 bd
       -0.03392619 -0.06047122 0.056956284 -0.03705967
000340 92 cd 22 3d ba 36 35 bd c5 ee 63 bd 38 92 2a 3d
       0.03974683 -0.044241644 -0.05564763 0.04164335
000350 50 bd 1d 3d 98 8d f5 3c 08 28 7b 3d d2 24 84 bc
       0.03851062 0.029974744 0.061317474 -0.016130839
000360 c7 4c 03 bd 28 0c e2 3c 1a e8 17 3d 20 67 10 3d
       -0.032055642 0.027593687 0.037086584 0.035254598
000370 64 bc 1a 3d f8 77 50 3c 9e a2 9e bc a0 0d 2c 3c
       0.03777732 0.012723915 -0.019364651 0.010501295
000380 80 0d da 3a 76 88 d1 bc 50 11 70 3d 44 d0 88 3c
       0.0016636103 -0.025577765 0.05861026 0.016700871
000390 6a 52 cb bc 9c 78 52 bd 80 53 c6 3a 5e e8 83 bc
       -0.024819572 -0.051384553 0.0015131086 -0.016102012
0003a0 60 45 1e bd 6e 2e 74 3d 34 32 09 3d 7c 77 d7 bc
       -0.03864038 0.05961459 0.033495143 -0.026302092
0003b0 00 17 e1 3c 08 a7 2d 3d 0c 4d d5 bc 40 2b 5b 3d
       0.027476788 0.04239562 -0.026037715 0.053508043
0003c0 40 34 c4 ba b0 ef 52 bb 20 3d c5 bd fb 90 d9 bd
       -0.0014969185 -0.0032186322 -0.09630799 -0.10623356
0003d0 ac 7c 6b 3d 1f 33 70 bd 8d 86 87 bd c9 d0 93 3b
       0.057491943 -0.058642503 -0.066174604 0.004510973
0003e0 7d b1 42 3d 12 d2 da bd 10 ae 14 3e 10 eb 46 bd
       0.047532547 -0.10684599 0.14519525 -0.048564017
0003f0 a2 eb f7 bb a0 70 1e 3e 5a aa 4d be 4e 71 48 be
       -0.0075659314 0.1547265 -0.20084515 -0.19574472

fc1.bias f4 [128]
000000 ba 66 84 be 57 5f 80 be b3 76 b9 be e9 fb 86 be
       -0.25859624 -0.2507274 -0.36223373 -0.26364067
000010 ad b7 8f be 9e 26 86 be b6 90 75 be 88 0e d0 be
       -0.2806982 -0.26201338 -0.23980984 -0.40636086
000020 1b ca 5a be 32 73 e9 bd 4f 20 84 be 6d 15 83 3e
       -0.2136616 -0.11398925 -0.258059 0.25602284
000030 3c 63 b4 be fb 03 8f be 9b 4c 64 be 52 58 9a be
       -0.3523196 -0.27932724 -0.22294848 -0.30145508
000040 8a ed 68 be 3c 91 81 be b4 ad dc 3e 69 6d 9f be
       -0.22746864 -0.25306118 0.43101275 -0.3113816
000050 c9 32 c8 be c1 b8 14 bd a5 f2 8c be 09 97 01 be
       -0.39101246 -0.036309008 -0.27528873 -0.12655272
000060 b9 e3 36 be 14 bd 58 be ed 22 5c be b7 45 d0 3e
       -0.17860307 -0.21165878 -0.21497698 0.40678188
000070 7d 26 0e be 57 85 8e be b7 88 b3 3e a3 67 cc be
       -0.1388187 -0.27836105 0.35065243 -0.3992282
000080 d7 9b 63 3b cb db 49 be 51 0a 70 be 6d bf 6f be
       0.003473034 -0.1971275 -0.23441435 -0.23412867
000090 f9 49 97 be f4 fc 03 be 22 9f af be 5a 47 b6 be
       -0.29548624 -0.12889463 -0.34301096 -0.35601312
0000a0 5e 81 fb 3e 00 b6 20 be c5 86 e2 be 01 58 3c be
       0.49122137 -0.15694427 -0.44243446 -0.18392946
0000b0 d0 46 82 be d5 47 0a 3f b7 4d 67 3e e0 20 a4 be
       -0.2544465 0.54015857 0.2258824 -0.32056332
0000c0 b7 cc 14 3f bf 0d 9c be d1 96 51 bc 9d e2 8b be
       0.5812487 -0.30479237 -0.012792305 -0.2732133
0000d0 31 1f 20 be e0 d6 ec bc 5c 2d b8 be 8c bd 84 be
       -0.15636899 -0.028911054 -0.35972106 -0.25925863
0000e0 e0 e2 67 be 4f 6e b7 be 8c 4a 3f be 60 81 9d bd
       -0.2264514 -0.35826346 -0.18680781 -0.07690692
0000f0 e4 c2 8a be d5 f5 02 3c 2a 46 08 be 6e 0f ab be
       -0.27101815 0.007993181 -0.13308015 -0.3341021
000100 49 d3 d3 3d d5 b3 f4 3c 4d f4 14 be b4 2c 82 be
       0.10343034 0.029870907 -0.14546318 -0.2542473
000110 60 e3 61 be 10 2a 58 be 60 17 79 be 76 b9 9b be
       -0.22059393 -0.21109796 -0.24325323 -0.30414933
000120 29 4e 79 be bb 77 76 be 27 72 98 be 4c 07 51 be
       -0.24346222 -0.24069111 -0.2977459 -0.2041294
000130 6e f2 7b be ca ae 87 be 8f 7e 6d be 66 62 41 be
       -0.24604198 -0.2650054 -0.2319281 -0.18885192
000140 58 c3 00 3f 4d 0d 53 be 4f 8c 20 be a8 93 a5 be
       0.5029807 -0.20610543 -0.15678523 -0.32339215
000150 af e0 ae be ee 47 80 be 5c 31 79 be 4f b8 77 be
       -0.34155795 -0.25054878 -0.24335235 -0.24191402
000160 ce a1 da 3e f5 2c 47 be d3 61 9d be 29 60 8c be
       0.42701572 -0.19450743 -0.30738696 -0.27417114
000170 ee b8 1f be b4 cf bb bd a7 60 6f be 7d bb c4 be
       -0.15597889 -0.091704756 -0.23376714 -0.38424292
000180 6c f5 1b be dc 73 aa be f1 f4 bf bd a2 46 0b be
       -0.1523034 -0.3329152 -0.09372891 -0.13601163
000190 c5 24 6d be 1f 2e 89 be 9c d3 b6 be d5 aa 88 be
       -0.23158558 -0.26793 -0.3570832 -0.26692834
0001a0 41 0c 98 be 7f 37 a8 be c0 fd 99 be 15 b6 2a be
       -0.2969685 -0.3285484 -0.30076408 -0.16671021
0001b0 16 7e 3b be e6 47 87 be 5b 6b 0a be 56 53 d2 be
       -0.18309817 -0.26422042 -0.13517515 -0.41079205
0001c0 ff bf 13 3f d5 cb 45 3d 1e 37 5c be 72 b3 58 be
       0.5771484 0.048290092 -0.215054 -0.21162203
0001d0 1c aa 88 3d e0 68 51 be 40 f6 87 be a8 86 b0 be
       0.06673071 -0.20450163 -0.2655506 -0.34477735
0001e0 79 13 07 3f d1 e8 4e be 2f 35 05 be 15 20 9c be
       0.5276409 -0.20206 -0.13008569 -0.30493227
0001f0 d7 2c 73 be f1 19 1e be f0 84 8d be f2 b2 67 3e
       -0.23747574 -0.15439583 -0.27640486 0.22626856

fc2.weight f4 [64, 128]
000000 4f 1b 83 bd 54 38 d2 bd 32 ac 0c 3d b3 dc b8 bd
       -0.06401693 -0.1026465 0.034343906 -0.0902647
000010 7b b1 80 3d a1 21 b2 be 46 34 0b 3e 16 7a 9f 3c
       0.06283852 -0.34791282 0.1359416 0.019467395
000020 df 0c f5 bc 8b 62 67 3e a9 04 65 be 51 c3 1c 3e
       -0.029913364 0.22596185 -0.22365059 0.15308882
000030 e6 f0 8e 3d 5d d1 fe 3b 12 70 6c 3d cf 10 f2 3d
       0.069795415 0.007776423 0.057724066 0.11819612
000040 d4 9b 05 be 59 ae a7 bc 34 84 ac 3e 99 45 92 3d
       -0.13047725 -0.020468878 0.33694613 0.07142181
000050 b0 7b a2 3b 2b e2 1e bc 96 d7 1e be 87 d6 ba 3d
       0.0049585924 -0.009697477 -0.15511927 0.09122949
000060 15 09 c1 bd e8 e4 b6 bc 00 6e c0 bd 62 18 2c 3e
       -0.094255604 -0.022325948 -0.09395981 0.16806176
000070 a6 bc a3 3c 3d 12 a0 3d 77 05 76 3d 4c 81 a1 bc
       0.019987416 0.07815979 0.060063805 -0.019714974
000080 4b 05 dd bb 2e c5 09 be a4 97 07 be 42 30 20 3d
       -0.0067450157 -0.13454124 -0.1324144 0.039108522
000090 c5 51 15 bc 1d ba 01 3e 02 31 35 bc 92 15 11 be
       -0.009113734 0.12668653 -0.011059048 -0.14168385
0000a0 9d ea b2 3e 31 13 88 bd d4 65 39 bd 27 8f 89 3d
       0.3494462 -0.066442855 -0.045263126 0.06716757
0000b0 4d d2 7d 3b a2 e5 c5 3e 37 cd 94 3d 95 0f 55 3b
       0.0038730085 0.38651758 0.07265704 0.0032510508
0000c0 79 b8 a4 3e f1 e5 6c 3c f9 fe 24 3d 3e 94 4b 3d
       0.3217199 0.014459119 0.040282223 0.04970192
0000d0 2d 07 3e bd ba 16 17 bc 15 ec 47 be 77 3d 33 3d
       -0.046393562 -0.009221727 -0.19523652 0.04375979
0000e0 0f 53 b9 3c 8a f3 16 be c8 f2 14 bc 04 6a 36 3d
       0.022622613 -0.1474134 -0.009091087 0.044534698
0000f0 44 6f 2f 3e 05 b7 f8 bd 90 84 26 bd 7f 6a 02 be
       0.17132288 -0.12144283 -0.040653765 -0.12735938
000100 2a df b3 3d 68 38 8d 3d 09 79 7c bd d0 b2 3f 3e
       0.087827995 0.06895524 -0.061638866 0.18720555
000110 84 c5 b6 bd cd de 08 3e be ae ca bd c6 36 5e bd
       -0.08924392 0.13366242 -0.09896611 -0.054251455
000120 aa 75 74 bc ab f6 8a be 4f ee 8b bd 24 4e c1 3d
       -0.014920631 -0.27141318 -0.06832563 0.09438732
000130 14 ad f7 3c 82 89 42 bc b8 b1 2e be 1f 4c fe bc
       0.030233897 -0.011873605 -0.17059982 -0.031042157
000140 36 b5 82 3e c7 c4 4e bd 26 fa a0 bd f6 3d ed bc
       0.25528878 -0.05048063 -0.07860212 -0.02896021
000150 63 ee f2 bd 5d 4d fd 3c 6c dc 04 3d 4d 18 2b be
       -0.11861875 0.030920679 0.032436773 -0.16708489
000160 21 0e 28 3e f8 28 6a bd 5f ec 3d 3d b3 dd a9 3c
       0.1641164 -0.057167977 0.046368 0.020735597
000170 a7 a9 11 bc 18 78 5e 3d 44 11 b6 3c d0 4d 53 3d
       -0.008890546 0.05431375 0.02222503 0.05158788
000180 e0 ae c8 bd 08 9b a5 3d 5c d7 dc 3d 58 57 bf bd
       -0.0979898 0.080862105 0.10783264 -0.093428314
000190 6e bb cd 3d 44 22 f5 3d f5 50 5d 3c e1 15 10 bd
       0.10045515 0.11969426 0.013508071 -0.035177115
0001a0 c1 42 d6 bd 50 ff 83 be 97 8c 60 bd a6 4e 38 bc
       -0.10461951 -0.25780725 -0.054821577 -0.01124922
0001b0 eb 1c a0 3d 82 0f d2 bc e6 3d bf bd 1b 13 63 3c
       0.07818016 -0.02564216 -0.09337978 0.013859536
0001c0 b7 ba cc 3e d9 4b 05 3e 6d 5f 26 3d 48 a5 a8 3d
       0.39986202 0.13017215 0.04061835 0.0823465
0001d0 92 13 13 3d 8e 04 25 3d 7e 80 75 be c3 e1 da bd
       0.035907336 0.040287547 -0.23974797 -0.10687592
0001e0 16 9f ae 3e e4 8f c0 3c dc fb f7 3b 53 b0 32 3e
       0.34105748 0.023506112 0.007567866 0.17450075
0001f0 aa 4b 8d be ac 45 70 3d 3e 27 c2 bd 24 ea 15 3e
       -0.2759679 0.058660194 -0.09480141 0.14640099
000200 37 f6 b9 bc e4 b5 e3 bd de 97 d5 bd a1 6a f5 bc
       -0.022700412 -0.11118677 -0.10429357 -0.029958071
000210 d5 af 9a bd 6e 6a fe 3a f6 30 ec 3d e5 a0 12 bd
       -0.075530685 0.0019410381 0.11532776 -0.035797972
000220 24 85 d7 3d 6c 27 84 3d 4a 2f 05 3e 02 38 58 bd
       0.105234414 0.064528316 0.1300632 -0.05278779
000230 e2 84 19 be 2b f2 21 bd 01 9e 53 3d 9c 3f 7a 3d
       -0.14992097 -0.03953759 0.051664356 0.06109582
000240 82 47 84 bd 97 6c 87 bc 5e 6a 8f bc 85 95 86 bc
       -0.064589515 -0.016531272 -0.017506775 -0.016428718
000250 74 21 be 3d b8 b6 37 bd ff 24 85 bc 2f 5e 10 3e
       0.092837244 -0.04485199 -0.016252993 0.14098428
000260 be 48 cb bc 87 62 12 3d 16 c7 9b bc e5 5e 35 be
       -0.02481496 0.035738494 -0.01901583 -0.1771198
000270 25 a0 66 bd 5c cb 36 be a2 9b d7 3c 0e c7 1e be
       -0.05630507 -0.17851013 0.026319329 -0.15505621
000280 bd b7 c6 bd f2 b8 f1 3c 6a 9c f4 bc ea 79 da bd
       -0.09703014 0.029507134 -0.02985974 -0.106677845
000290 14 88 19 bd ea 76 94 bd 42 fe a7 bc fd 0f 9b 3c
       -0.03748329 -0.072492436 -0.020506982 0.018928522
0002a0 a5 ad f3 bb 25 6f d8 3d 94 67 06 be 0e 34 b3 3d
       -0.0074364715 0.10568074 -0.1312545 0.08750163
0002b0 74 f3 4d be 44 cd 58 be 5c 03 ac 3d 14 56 3e bd
       -0.20112401 -0.21172053 0.08399078 -0.04646881
0002c0 55 58 87 3d 5a 22 71 bd bc 5a d9 bd 5f 7a e8 3d
       0.06608645 -0.05887065 -0.10613009 0.113514654
0002d0 25 55 ed 3d 4f b0 22 bd ff 86 61 bd 25 83 69 3d
       0.11588506 -0.039718922 -0.055060383 0.057009835
0002e0 be c9 39 bd 3c 39 8f 3d 86 d5 27 bc 9b 5b 68 bd
       -0.045358412 0.069933385 -0.010243779 -0.056727987
0002f0 b1 59 c5 3d 56 5b 84 3d fe 84 76 bd 81 0a f9 ba
       0.09636248 0.064627334 -0.060185425 -0.0019000323
000300 8a 47 b9 bd d2 ea 73 3d 46 35 c4 bd e8 0a 3e bd
       -0.09046848 0.059550114 -0.095804736 -0.04639712
000310 25 64 84 bd ef 92 65 3d e8 42 85 bc df b3 07 be
       -0.064644136 0.05604833 -0.016267255 -0.13252209
000320 f2 1f 3c 3b 0f 7e 66 bc 31 b9 77 3b 5d d5 e2 3d
       0.0028705564 -0.014068141 0.0037799592 0.11075852
000330 97 ad 51 bc 06 de af 3c a7 b4 5b be 6a cb 54 be
       -0.012797735 0.021468174 -0.21455632 -0.20780721
000340 3c a1 c1 bc 01 55 bb bd 63 c3 82 3c c4 7d 64 3d
       -0.023636453 -0.091470726 0.015962308 0.055784002
000350 a1 3c 1b be 03 b0 b3 3d 80 40 b0 3c c5 6d b0 3d
       -0.15159847 0.08773806 0.021515131 0.08614687
000360 c4 3e a4 bc 31 17 14 3d ac 5c 2d be db 95 26 3d
       -0.02004946 0.03615493 -0.16929883 0.040670257
000370 70 f0 5d 3c 6e 05 a7 bd b7 d8 b0 3d 96 0c 37 bd
       0.013546094 -0.081553325 0.08635085 -0.044689737
000380 be 12 3e 3d 6b c4 2e be 9c 64 ae 3d 8a 22 94 3d
       0.046404593 -0.17067115 0.085152835 0.0723315
000390 73 18 4b bd af e4 87 3c 25 15 93 be ca 16 df 3d
       -0.049583863 0.016588537 -0.2872707 0.108930185
0003a0 67 9c ec bd ef a0 a8 3d 05 c7 83 3c 09 1f 1b be
       -0.11553269 0.08233821 0.01608611 -0.15148558
0003b0 6b 48 0f bd c9 3b f5 3a 44 c2 1f bd a9 a2 d2 bc
       -0.034981173 0.0018709834 -0.039003626 -0.025712328
0003c0 dd 93 24 bd de 2d 3f 3e 3e ac 99 3d 76 64 00 be
       -0.040180076 0.1866984 0.07503556 -0.12538323
0003d0 f5 54 4c bc 63 79 33 3c 2b 5b b7 bc 87 9d c8 3c
       -0.012471427 0.010954234 -0.02238234 0.024489177
0003e0 6e b8 e3 bc 19 ea cd bd eb e0 85 bd 30 0b 69 3d
       -0.027797904 -0.10054416 -0.0653704 0.056895435
0003f0 5e 0a 90 39 65 8a b1 bd a9 16 01 be 24 70 a4 bd
       0.00027473544 -0.08668975 -0.126063 -0.080292016

fc2.bias f4 [64]
000000 cd 06 fa 3e 65 b2 e5 3a 47 69 df 3e 3b c5 7d 3e
       0.48833314 0.0017524479 0.43635008 0.24782269
000010 69 00 69 3e b1 f6 0f 3f 06 b0 c4 3e 0f e3 90 3d
       0.22754063 0.56235796 0.38415545 0.07074558
000020 02 14 07 3e 9e 08 81 3e 4f 63 1d 3e b4 82 56 3e
       0.13191226 0.25201887 0.15369914 0.20948297
000030 9d 25 c3 bd 90 93 ec 3e 40 de 8a bd 06 f6 e3 3e
       -0.095286585 0.4620633 -0.06780672 0.44523638
000040 f7 59 38 bd 74 c3 f1 3e 21 39 6b 3e e9 6d 2e 3e
       -0.045007672 0.4721943 0.22971012 0.17034115
000050 52 09 b6 3e d2 a9 d0 bd f9 1c c3 3e 9c cb 0d 3e
       0.35553986 -0.10188641 0.38108042 0.13847202
000060 ae 86 8f 3d 8b 91 2d 3d 23 6e 61 3d 6b 59 a5 bd
       0.0700811 0.04237513 0.055036675 -0.08073696
000070 d2 e9 d6 3e bc 85 a9 3d 0a 25 02 bd 98 6d f4 3e
       0.41975266 0.08277461 -0.031773604 0.47739863
000080 c8 f2 c1 3e c9 34 95 3e 15 8f 14 3c 73 b8 ef bc
       0.3788054 0.29141834 0.009067317 -0.029262757
000090 59 af 28 bc 7c 32 1e 3c 0c 21 a2 bd e8 e1 22 bd
       -0.010295712 0.009655591 -0.079164594 -0.039766222
0000a0 71 81 55 3d 0f 23 f3 3c cc d2 bb 3e 25 8d b2 bd
       0.052125398 0.029679803 0.36684263 -0.087183274
0000b0 d3 e6 84 bd f8 8f ff bd b9 cf 09 bc d3 1c c6 bd
       -0.06489339 -0.12478632 -0.008411341 -0.096734665
0000c0 e7 eb 85 3e b8 53 bb bd 0b ce 20 bc e4 2d 24 bc
       0.26156542 -0.091468275 -0.0098147495 -0.010020707
0000d0 0c 73 6e 3c ff 8e ca bd 50 fb a8 bd 09 ec 7c 3d
       0.0145537965 -0.098905556 -0.08251059 0.06174854
0000e0 c5 f9 c9 3e 51 50 86 3e 2a 7a d4 3e 6a 42 ce bd
       0.39448372 0.26233152 0.41499454 -0.10071261
0000f0 31 2c da bc 48 7f 7b 3e 62 07 de bd 7f 32 b5 3e
       -0.0266324 0.24560273 -0.10841252 0.35390088

fc3.weight f4 [121, 64]
000000 79 6b 51 be 20 aa 2e bd 21 34 79 be ed 0d d3 bd
       -0.20451154 -0.042642713 -0.24336292 -0.103053905
000010 ed ad 0e be 4e d9 41 be 5e 87 2e be 28 63 8b bc
       -0.13933535 -0.18930551 -0.17043826 -0.017015055
000020 9c e7 f5 bd 5f 10 f0 bd 12 49 80 bb e0 30 61 bd
       -0.120070666 -0.117218725 -0.0039149607 -0.05497825
000030 58 cb d1 bd b1 55 95 be 5d d5 c5 3b c2 f9 dc bd
       -0.10243863 -0.2916694 0.006037398 -0.10789825
000040 e2 5f 0e 3d ae e8 73 be ac 10 ac bd 8c 44 fc bd
       0.03475941 -0.23819229 -0.084016174 -0.12317762
000050 dd cf 85 be 07 cb 8a bd dc 30 5c be b5 8c 13 3d
       -0.2613515 -0.06777006 -0.21503013 0.03602286
000060 97 71 11 3d e6 31 b5 bd c4 52 97 3d 68 e1 ee 3d
       0.03550872 -0.08847408 0.07388833 0.116640866
000070 70 17 c2 bd 3f 05 a0 bb a2 2b 25 bd e6 86 34 be
       -0.094771266 -0.004883438 -0.040324815 -0.17629585
000080 91 3d 55 be 8b 13 15 be 10 5a 9c 3d 3a 55 f6 bd
       -0.20824267 -0.14558236 0.076343656 -0.120279744
000090 4b 8b 21 bd de dc bd bd 42 b5 41 3c 14 17 00 3c
       -0.03943948 -0.09270643 0.011823 0.007818002
0000a0 28 d2 c0 3c 30 d9 63 3b 05 ba 17 be 7f 64 15 bd
       0.02353771 0.0034766905 -0.14817055 -0.036472794
0000b0 c0 f0 df 3b 4d 1f ad 3c d4 16 69 bd f0 ad 2a bd
       0.0068341196 0.02113309 -0.056906536 -0.041669786
0000c0 8a 8f fa bd 8a 38 6d 3d 91 4b b1 bd 14 dc a9 3b
       -0.12234409 0.057915248 -0.08656991 0.005183706
0000d0 d4 73 70 bd e2 b8 21 3e 7a e4 c6 bd 58 74 1e bd
       -0.058704212 0.15793183 -0.09711547 -0.038685173
0000e0 8d 18 47 be 3a 07 8b be 99 b0 49 be 04 1e 89 bd
       -0.19442959 -0.2715395 -0.19696273 -0.06695178
0000f0 32 35 8b bd f1 e6 a1 bb aa 8e 2d be ab 7f 2d be
       -0.067972556 -0.0049408604 -0.16948953 -0.16943233
000100 d5 df 69 be 6d d0 8f bc e0 9d 78 be e9 8a 55 be
       -0.22839291 -0.01755544 -0.24278975 -0.20853771
000110 8d fb 09 bd 05 5e 4e be be 36 3b be 5b 02 dc bd
       -0.033687163 -0.20153053 -0.18282601 -0.10742637
000120 68 5b d4 bd 06 77 63 be 6d b1 29 bd 5c d4 a0 bc
       -0.10368997 -0.22213373 -0.041428972 -0.01963251
000130 98 95 be bd 82 7a 58 be c0 dc fc bc e5 59 81 be
       -0.093058765 -0.21140483 -0.03086698 -0.25263897
000140 58 1f cd 3c 4d fe a2 bd be 61 a0 bd fe 41 f5 bc
       0.02503936 -0.0795866 -0.07831143 -0.029938694
000150 9e f0 46 be ec 12 30 be 6c d2 6b be 64 78 e7 bc
       -0.19427726 -0.17194718 -0.23029488 -0.028255649
000160 63 37 1d 3d 2b f3 38 be fd 22 99 be 7b 1f 0c 3d
       0.0383829 -0.18061511 -0.29909506 0.03420971
000170 22 8d 41 be 23 80 d0 bd 92 ca 44 bd 72 58 61 be
       -0.18901494 -0.1018069 -0.04804475 -0.22006395
000180 20 1d 15 be 83 76 cf bd fe 96 df 3d 4a 70 99 bd
       -0.14561892 -0.10130026 0.10917471 -0.074921206
000190 ae f7 5c bd c7 79 96 bc f8 3c 07 be d2 ae a8 bd
       -0.053947143 -0.018368615 -0.13206851 -0.08236469
0001a0 a4 68 d1 bd 70 1b f2 bd 6a db 06 be aa fe 50 3d
       -0.10225037 -0.118216395 -0.13169637 0.051024117
0001b0 28 92 0b 3d e7 1e ea bc fd f7 72 bc 36 2a c6 3d
       0.034074932 -0.028579189 -0.014829633 0.0967602
0001c0 f5 16 0c be 47 1e fb bd b8 83 5e 3c 20 d5 ed bc
       -0.13680632 -0.12261634 0.013581209 -0.02903229
0001d0 79 8b 1e bd f9 ae b9 bd 80 af e9 3c 65 ba 6c bd
       -0.03870723 -0.090665765 0.028526068 -0.057794947
0001e0 55 a1 11 be 16 28 0a be 6a 36 b7 bd 20 74 01 bd
       -0.142217 -0.13491854 -0.089459255 -0.031604886
0001f0 a4 56 8d bd 03 a5 b6 bd a8 04 d3 bc c9 1f 5b be
       -0.06901291 -0.08918192 -0.025759056 -0.21398844
000200 a0 d6 e7 bd 83 72 47 3d 2a 58 84 be 29 f5 04 be
       -0.11320233 0.04869319 -0.25848514 -0.12984146
000210 df c5 e1 bd c1 ee 43 be e8 bb 70 be c8 3c 69 3d
       -0.11024069 -0.19134046 -0.2350918 0.05694273
000220 2f ea 72 bd 7b 2f f1 bd a3 78 44 be 88 3f 37 be
       -0.059305366 -0.11776634 -0.19186644 -0.17895329
000230 20 6b 70 3d cf 44 4b be 83 17 59 bd 90 4d 69 be
       0.058695912 -0.19850467 -0.05300094 -0.22783494
000240 ab b9 10 be 7d bb 7f be 7e d4 c6 bd db cc 8e bc
       -0.14133327 -0.24973865 -0.097084984 -0.017431667
000250 65 b9 78 be f0 f4 7f 3c 71 fa 1a be 4f 41 0a be
       -0.24289472 0.0156223625 -0.15134598 -0.13501476
000260 74 2d cd bd e6 59 1c 3d b0 e2 ba bd 42 d4 89 bd
       -0.10018435 0.03817167 -0.091252685 -0.06729938
000270 7e 60 07 be 6e 1b 25 bc 52 dd b5 bd c7 49 56 be
       -0.13220403 -0.0100773405 -0.08880104 -0.20926581
000280 b1 29 2f be 6a fc b8 bd 80 cf 3d 3c a2 18 c5 bd
       -0.17105748 -0.09032519 0.011585116 -0.09623839
000290 4d 00 9c bd 31 ef ad bd 33 84 10 be 39 26 48 3d
       -0.07617245 -0.08492888 -0.1411293 0.048864577
0002a0 af eb a5 bd 8a ce cd 3a ce 86 31 be 33 7c c4 bd
       -0.08101594 0.0015701812 -0.1733658 -0.095940016
0002b0 fc 85 de bd 23 a1 25 be 15 83 af 3c 2a a9 ca bd
       -0.10865399 -0.1617475 0.02142481 -0.09895547
0002c0 21 50 ca bd f7 94 07 be 28 c8 00 be e3 ad c5 bc
       -0.098785646 -0.1324042 -0.12576354 -0.024130767
0002d0 64 06 c4 bd dc b6 27 bd c6 94 86 3d 4b e1 21 bc
       -0.095715314 -0.040945873 0.06571345 -0.009880374
0002e0 df 9e 85 be 69 d2 6c be e0 80 27 be 48 a9 99 bd
       -0.26097772 -0.2312714 -0.16357756 -0.07502991
0002f0 55 94 bb bd c6 f2 bf bd 5c 49 61 3b 51 cc e0 bd
       -0.091591515 -0.09372477 0.0034376 -0.1097647
000300 14 46 b0 3c f4 76 b4 3d ff e8 a4 be f6 9e 62 be
       0.02151779 0.08811751 -0.32209012 -0.22130951
000310 4a ba ab bd 24 46 94 be ad 6f 2b be 21 19 9c 3d
       -0.08385141 -0.28959763 -0.1674182 0.076219805
000320 cb 25 46 bd 66 f9 1d be 9d e4 f6 bc 86 2d 9b bd
       -0.048375886 -0.15427169 -0.030138308 -0.07577042
000330 52 ac bf bd 53 e8 05 be dc e0 2b bd a1 73 5e be
       -0.09359039 -0.13076906 -0.04196249 -0.21723796
000340 89 9b 09 3d 02 bc a1 bd 5d 0e e6 bd 10 5d 62 bd
       0.033595596 -0.07897188 -0.11233208 -0.055264533
000350 a6 47 20 be a4 de b5 3d 90 dc 36 be 21 34 97 3b
       -0.15652332 0.08880356 -0.17857575 0.0046143685
000360 17 c2 9a bd 7f 3b 53 3d 50 26 a7 3c 3a 15 c2 bd
       -0.07556551 0.05157041 0.020404011 -0.09476705
000370 a3 7b 1b be 34 ab 69 bc 75 12 d3 bd 6f 84 74 be
       -0.15183882 -0.014262009 -0.10306255 -0.23878644
000380 5c f5 a5 be b2 fe 47 be 9a 28 4c 3d 88 ce bc bc
       -0.32413757 -0.19530752 0.04984341 -0.0230477
000390 a9 ef cb bd a5 ee 0c bd 74 12 37 bd 47 ad 34 bc
       -0.09957821 -0.034407277 -0.044695333 -0.011027641
0003a0 a4 24 8d bd 94 12 5f bd fc 10 4c be 06 c8 51 bd
       -0.06891754 -0.054461077 -0.19928354 -0.051216148
0003b0 06 a7 c3 3d 98 16 68 3d 93 8e 12 be 20 a9 f2 3d
       0.095533416 0.056662172 -0.143122 0.11848664
0003c0 8a b3 d1 bd 01 83 ce bc e6 1e 63 bb 9b 4c 9a bd
       -0.102393225 -0.025208952 -0.0034655868 -0.075341426
0003d0 a2 78 92 bd 2f 3e b4 bd 46 84 8e bd bb 59 8f bc
       -0.07151915 -0.08800923 -0.06958823 -0.017498842
0003e0 77 d5 90 be cb 82 72 be b0 ef 81 be 50 91 cd bd
       -0.2828786 -0.23682706 -0.2537818 -0.10037482
0003f0 42 c9 40 bc 3b e5 54 bc 4a 8f 93 bd ed 7d b1 be
       -0.011766734 -0.012994106 -0.072050646 -0.34666386

fc3.bias f4 [121]
000000 dc f7 8d be 05 f3 7b be 25 77 ae be 8a c5 74 be
       -0.27728164 -0.24604423 -0.34075275 -0.2390348
000010 93 98 94 be 15 e1 62 be 72 4f 39 be 6d b2 6d be
       -0.29022655 -0.22156174 -0.18096712 -0.23212595
000020 45 01 5d be 71 55 62 be bd 38 6c be f0 a6 b0 be
       -0.21582516 -0.22102906 -0.23068519 -0.34502363
000030 76 16 b3 be 6b 24 80 be 36 90 c9 be 46 0c 9b be
       -0.34978074 -0.25027785 -0.39367837 -0.302828
000040 38 13 a3 be ee 6a 95 be 8e bc 88 be e6 7e 96 be
       -0.318506 -0.29183143 -0.26706356 -0.2939369
000050 72 5d 84 be 13 fb 91 be 50 2a 86 be e7 8a 54 be
       -0.25852543 -0.28511867 -0.26204157 -0.20756112
000060 bd ca a9 be c7 b4 2f be b5 a8 cc be 71 b8 ad be
       -0.3316249 -0.17158805 -0.39972463 -0.3392978
000070 7c 7a 4c be cb 20 95 be 44 d9 4b be a3 b5 7c be
       -0.19968599 -0.29126582 -0.19907099 -0.24678664
000080 e6 69 81 be 79 f0 7d be d5 1d 90 be 58 ca 95 be
       -0.25276107 -0.24798764 -0.2814776 -0.2925594
000090 e3 af a6 be 37 43 98 be 19 de ae be d7 97 9a be
       -0.32556066 -0.2973878 -0.34153822 -0.3019397
0000a0 e0 f7 7b be e1 28 9a be 19 90 b1 be 15 5a 7f be
       -0.24606276 -0.30109313 -0.3468025 -0.24936707
0000b0 af 04 a1 be 5f 0f 9f be 48 23 99 be 2b 87 5b be
       -0.31448886 -0.31066415 -0.2990973 -0.21438281
0000c0 f3 b0 65 be f7 0a 50 be 22 87 8e be fc 4c a5 be
       -0.22430782 -0.20316683 -0.27837473 -0.32285297
0000d0 0f e6 2e be 2c 3e ac be 5c 39 a9 be 19 3d 9e be
       -0.17079948 -0.33641183 -0.33051574 -0.3090599
0000e0 75 f9 ac be 11 09 a3 be eb ea 97 be 42 f9 b1 be
       -0.3378407 -0.31842855 -0.29671416 -0.3476048
0000f0 59 91 aa be 3a f7 88 be d3 be 85 be 78 b3 8b be
       -0.33314016 -0.2675112 -0.2612215 -0.2728536
000100 db fc 83 be 11 4a 87 be 2e 2e 8a be 44 a0 51 be
       -0.2577885 -0.26423696 -0.26988357 -0.20471293
000110 5e 70 91 be c8 1a 7f be c8 3c 42 be d8 6f 90 be
       -0.28406042 -0.2491256 -0.18968499 -0.2821033
000120 05 ff b1 be 01 a4 76 be ce d7 95 be a9 fe bf be
       -0.34764877 -0.24086 -0.29266208 -0.37498978
000130 db 5c 75 be f9 30 a8 be 58 ca ce be 6d 36 86 be
       -0.23961203 -0.32849863 -0.4038875 -0.262134
000140 a6 d8 62 be 17 49 94 be 11 62 54 be aa f5 c4 be
       -0.22152957 -0.28962013 -0.20740534 -0.38468677
000150 e0 d0 68 be c5 e2 8c be ea 4e 83 be ad 3e 7a be
       -0.2273593 -0.2751676 -0.25646144 -0.24437971
000160 2b dc 62 be 2b ba 92 be 88 ab 90 be e3 84 40 be
       -0.221543 -0.2865766 -0.28255868 -0.18800692
000170 10 1a a5 be 58 52 9a be fb 06 ac be b2 5a 67 be
       -0.32246447 -0.30140948 -0.33599076 -0.22593191
000180 c1 99 a7 be 2c c9 b7 be 8b 7a 7f be 7c 7d 83 be
       -0.32734492 -0.3589567 -0.2494909 -0.25681674
000190 6e cf 95 be 46 18 90 be 8e 35 85 be 25 30 65 be
       -0.2925982 -0.2814352 -0.2601742 -0.22381647
0001a0 46 b4 85 be 6c 26 55 be 19 a8 a7 be bc a4 b4 be
       -0.261141 -0.20815438 -0.32745436 -0.35281932
0001b0 4a 51 8d be b1 9c 6d be 12 02 ae be 7c 25 ba be
       -0.2760108 -0.23204304 -0.33985955 -0.36356723
0001c0 72 f7 a1 be 53 8e ba be a5 e3 c6 be 65 aa bc be
       -0.31634098 -0.3643671 -0.38845554 -0.3684875
0001d0 31 30 c2 be 5f f7 9e be 0e 37 0a be 1a f7 6a be
       -0.37927392 -0.31048104 -0.13497564 -0.22945824
0001e0 32 c2 6b be
       -0.23023298
